models/pg/reinforce_grid.pt (torch, 6179 bytes, 4 tensors)

fc.0.weight f4 [128, 2]
-0.36743936 -0.59508073 -0.02836372 0.7469962 -0.27147287 0.32889456 -0.19318664 0.6579774
-0.58745646 0.2453757 -0.037057422 -0.10717884 0.32559872 -0.6388935 0.50958824 -0.605074
-0.82515246 0.5533284 0.46740445 0.16332367 0.65996933 -0.24251993 -0.48927572 0.02686649
0.35153168 -0.17387846 -0.06409919 -0.6913612 0.14351438 -0.5227293 0.27302283 0.41272935
-0.08756229 -0.7545466 0.2649602 -0.5294493 -0.047224406 0.38661098 -0.46219093 -0.41894633
0.056639653 0.6046285 -0.04504161 -0.5127921 -0.20305784 0.012664362 -0.43718487 0.021022677
-0.050843656 -0.055688143 -0.038126025 0.2855096 -0.03231506 0.42462885 0.3039119 -0.65126747
0.28812256 0.31783718 0.3849812 -0.53923476 -0.34077352 0.6544566 0.18383968 -0.2882626
0.58237326 0.10817414 0.6597943 -0.6805451 -0.34936923 -0.44778717 0.37614426 -0.53733516
-0.54388773 0.11486299 -0.43015856 -0.28105387 -0.21318115 -0.18036628 0.24365051 0.078295544
-0.45964882 0.23359293 -0.6440109 -0.17402804 -0.5490971 -0.096105695 -0.13027178 -0.5912664
-0.32616147 -0.26486462 0.15502656 0.25929528 -0.16728021 -0.11525845 -0.047850367 -0.32575008
0.5347907 -0.5123309 -0.4868401 0.1837284 -0.18710902 0.53458464 -0.28354934 0.10584247
0.69327277 0.56483847 0.46356866 0.35614884 0.18925251 0.24288295 -0.21775211 -0.4501849
0.37046897 -0.20637728 -0.11394886 -0.20284785 0.33137828 0.68020856 -0.16489547 -0.25537887
0.047328014 -0.091259964 -0.56057334 -0.5533322 -0.080408335 0.12283665 -0.56877744 0.4715618
0.51776564 -0.5937049 -0.49830684 -0.3034327 -0.520809 0.33503494 0.33659118 -0.49511522
0.15996605 0.6275006 -0.22580892 0.034257878 0.2236599 0.30939627 0.5180748 -0.1736125
0.6215908 0.6769502 -0.4307025 -0.092966735 -0.41521093 -0.6365759 -0.51379985 -0.15198237
0.5196841 -0.007652931 0.12906621 -0.48117784 -0.62165797 0.047176912 0.28046218 -0.4395931
-0.26725712 0.63173234 0.108285025 0.61056 -0.1455706 -0.44636205 0.4793737 0.5660706
0.060149755 -0.17276989 -0.23514917 -0.22362837 0.2774005 -0.35152435 0.19053887 0.09858986
0.07220971 -0.22615257 -0.33544958 0.67346835 0.37017077 -0.468475 0.34707424 0.30926973
-0.4324134 0.3797525 -0.017542845 -0.26132542 -0.5539664 0.29504067 -0.4902893 -0.6469995
-0.10875927 0.49879137 -0.18481337 0.6536738 -0.21861766 -0.32408297 -0.46779445 -0.48806435
-0.40555525 0.5895847 -0.3818293 0.3611828 -0.50769824 -0.6115941 -0.0933985 -0.21721287
0.28629228 0.5393759 -0.26304042 0.6230086 -0.13976291 0.5057184 -0.7951625 0.52182955
0.30599833 0.10185998 0.17035922 0.10355067 -0.5620643 -0.09171146 -0.5204322 -0.22777364
-0.39165527 -0.23229463 0.4436285 -0.79560286 -0.4530459 0.369368 -0.22031853 -0.49983126
0.1034666 0.6221547 0.41247782 -0.47746372 0.087120175 -0.37715864 0.45301124 0.6258547
-0.25836676 0.016473413 0.59045315 0.17790279 0.3072341 -0.41929176 0.65025926 -0.42807233
0.20523229 -0.24117382 -0.022704244 -0.4622839 0.26092443 -0.4062447 0.032964487 0.4588153
00000000: 0321 bcbe 3657 18bf 085b e8bc 253b 3f3f
00000010: 7efe 8abe de64 a83e b8d2 45be 3571 283f
00000020: 8c63 16bf c443 7b3e 86c9 17bd 9480 dbbd
00000030: e0b4 a63e 868e 23bf 6074 023f 21e6 1abf
00000040: 313d 53bf eea6 0d3f a34f ef3e 523e 273e
00000050: c0f3 283f 2557 78be 5982 fabe 1d17 dc3c
00000060: f6fb b33e 320d 32be 7046 83bd 0cfd 30bf
00000070: 6ff5 123e 96d1 05bf a6c9 8b3e 4351 d33e
00000080: dc53 b3bd f729 41bf dda8 873e fd89 07bf
00000090: 616e 41bd e0f1 c53e 4aa4 ecbe 2280 d6be
000000a0: fbfe 673d efc8 1a3f 8d7d 38bd 5846 03bf
000000b0: 65ee 4fbe 2f7e 4f3c b2d6 dfbe c037 ac3c
000000c0: 7041 50bd 4019 64bd 092a 1cbd 502e 923e
000000d0: cc5c 04bd f468 d93e 579a 9b3e 77b9 26bf
000000e0: cd84 933e 8ebb a23e 411c c53e 4a0b 0abf
000000f0: de79 aebe 788a 273f 7840 3c3e 2897 93be
00000100: 6a16 153f 678a dd3d 47e8 283f 3438 2ebf
00000110: 86e0 b2be 5c44 e5be fb95 c03e cc8e 09bf
00000120: 3a3c 0bbf 4a3d eb3d be3d dcbe 4be6 8fbe
00000130: 294c 5abe f0b1 38be 857f 793e 6a59 a03d
00000140: 1757 ebbe fc32 6f3e e6dd 24bf 6834 32be
00000150: a191 0cbf 10d3 c4bd f765 05be 3c5d 17bf
00000160: a3fe a6be 569c 87be 48bf 1e3e 5ac2 843e
00000170: 814b 2bbe 9f0c ecbd bffe 43bd b7c8 a6be
00000180: 0be8 083f 1e28 03bf 1b43 f9be 4c23 3c3e
00000190: 8299 3fbe 8ada 083f 612d 91be f0c3 d83d
000001a0: 537a 313f 4199 103f df58 ed3e 2459 b63e
000001b0: 69cb 413e 4fb6 783e 69fa 5ebe a37e e6be
000001c0: 1cae bd3e 9154 53be 055e e9bd 59b7 4fbe
000001d0: 6aaa a93e 2622 2e3f 5cda 28be 05c1 82be
000001e0: 05db 413d 81e6 babd bc81 0fbf 2ea7 0dbf
000001f0: 20ad a4bd c891 fb3d 669b 11bf 8c70 f13e
00000200: 4a8c 043f 0bfd 17bf 1322 ffbe 885b 9bbe
00000210: bd53 05bf b389 ab3e ae55 ac3e be7f fdbe
00000220: 24ce 233e e1a3 203f 743a 67be fd51 0c3d
00000230: 1a07 653e 3069 9e3e 8da0 043f 7ac7 31be
00000240: 9320 1f3f 9c4c 2d3f 0a85 dcbe 5865 bebd
00000250: 8796 d4be a3f6 22bf 6388 03bf 44a1 1bbe
00000260: 040a 053f 70c5 fabb ef29 043e f15c f6be
00000270: fa24 1fbf 943c 413d bd98 8f3e 5912 e1be
00000280: edd5 88be 36b9 213f 8ac4 dd3d a94d 1c3f
00000290: 7610 15be 9189 e4be 7870 f53e 01ea 103f
000002a0: 975f 763d 97ea 30be f2ca 70be d6fe 64be
000002b0: 7007 8e3e 00fb b3be 9f1c 433e 7be9 c93d
000002c0: afe2 933d 8a94 67be 0cc0 abbe 6c68 2c3f
000002d0: 0687 bd3e f5db efbe b7b3 b13e 9a58 9e3e
000002e0: 4a65 ddbe eb6e c23e 03b6 8fbc 72cc 85be
000002f0: bed0 0dbf 920f 973e 3307 fbbe c2a1 25bf
00000300: 2ebd debd 9561 ff3e b73f 3dbe 2b57 273f
00000310: 4fdd 5fbe 34ee a5be c182 efbe 92e3 f9be
00000320: f0a4 cfbe 06ef 163f 217f c3be f4ec b83e
00000330: 83f8 01bf 6e91 1cbf b647 bfbd 0d6d 5ebe
00000340: e794 923e 8a14 0a3f 3cad 86be 7e7d 1f3f
00000350: 021e 0fbe c376 013f c58f 4bbf 9f96 053f
00000360: d0ab 9c3e f79b d03d a672 2e3e 6012 d43d
00000370: 72e3 0fbf 38d3 bbbd 0b3b 05bf 7e3d 69be
00000380: 0a87 c8be a5de 6dbe 4623 e33e a1ac 4bbf
00000390: a2f5 e7be cd1d bd3e 2e9b 61be e2e9 ffbe
000003a0: 4ce6 d33d 8845 1f3f 4b30 d33e 2076 f4be
000003b0: 106c b23d f01a c1be 17f1 e73e 0338 203f
000003c0: a648 84be 40f3 863c f027 173f 262c 363e
000003d0: ca4d 9d3e 69ad d6be 6477 263f 4c2c dbbe
000003e0: 6a28 523e 45f6 76be 40fe b9bc 7ab0 ecbe
000003f0: e397 853e 4eff cfbe c505 073d d7e9 ea3e

fc.0.bias f4 [128]
0.82613087 0.305976 0.07814879 -0.46021995 -0.07576443 0.47671467 0.08324106 -0.22016215
-0.020151976 0.18206893 0.07147204 0.43259123 -0.52354413 -0.59102845 0.002740662 -0.1787818
0.7738356 -0.5636654 -0.29530194 -0.26670703 0.30263695 0.17102453 0.6466919 -0.6857884
-0.6874437 -0.31960636 0.13718724 -0.25328025 0.34967697 -0.6847606 0.35117936 0.24135038
0.6384996 -0.13526076 -0.5135577 0.46232966 -0.24162301 0.40605742 0.317837 -0.25428894
-0.49407312 -0.024395347 -0.16665632 0.37712032 0.19911319 0.3321117 0.5291054 0.43953452
0.54804796 -0.40515485 0.30627054 -0.48814884 0.07587107 0.053010985 -0.2605451 0.53524435
-0.5865865 0.6101446 0.030309245 -0.007493019 -0.11687938 0.18173507 -0.61834246 -0.2961059
0.36429316 0.6225895 0.124536015 0.46250737 0.20359859 0.6108197 -0.54665995 -0.23215455
0.23146513 -0.676509 -0.23939392 -0.08292985 0.059088636 -0.15756921 -0.114004076 0.20032316
-0.04105827 0.5166707 0.76592815 -0.049038686 -0.16247004 0.6806318 -0.06594986 0.42008415
-0.14486118 -0.7024343 -0.07166903 -0.74816597 -0.6846539 0.45015815 0.6049682 -0.24373159
-0.48221385 0.60943395 0.23304935 0.7111025 0.54108983 -0.43490508 -0.41855943 0.53281665
-0.48752797 -0.10285939 -0.15000509 0.24633513 0.25508085 -0.13319044 -0.50204456 0.6775097
0.64700484 0.6206651 -0.30647668 0.17786747 0.5360477 -0.21114318 -0.41455647 0.55835557
-0.17379773 -0.016025355 0.028483292 0.20268176 0.36567503 -0.6909914 0.17832221 -0.6351852
00000000: 507d 533f e3a8 9c3e 790c a03d f3a1 ebbe
00000010: 622a 9bbd f213 f43e 4a7a aa3d 3072 61be
00000020: c215 a5bc 4770 3a3e ef5f 923d 997c dd3e
00000030: fd06 06bf a44d 17bf ae9c 333b 9412 37be
00000040: 171a 463f 604c 10bf d131 97be d38d 88be
00000050: 3bf3 9a3e 0e21 2f3e 9a8d 253f d48f 2fbf
00000060: 4ffc 2fbf 72a3 a3be d07a 0c3e f3ad 81be
00000070: dc08 b33e 784c 2fbf c8cd b33e 8e24 773e
00000080: b674 233f cc81 0abe 8478 03bf 79b6 ec3e
00000090: 066c 77be c2e6 cf3e 88bb a23e 2932 82be
000000a0: 27f7 fcbe c0d8 c7bc f4a7 2abe ea15 c13e
000000b0: 54e4 4b3e 8b0a aa3e 7473 073f ab0a e13e
000000c0: df4c 0c3f 7570 cfbe 7ecf 9c3e a5ee f9be
000000d0: 4b62 9b3d 0c22 593d 2b66 85be c605 093f
000000e0: 882a 16bf 7032 1c3f 184b f83c 0088 f5bb
000000f0: 755e efbd c218 3a3e b14b 1ebf 319b 97be
00000100: a284 ba3e 0762 1f3f bd0c ff3d c4cd ec3e
00000110: 267c 503e ae5e 1c3f e8f1 0bbf ecb9 6dbe
00000120: 3205 6d3e b22f 2dbf ae23 75be 20d7 a9bd
00000130: ed06 723d d359 21be f87a e9bd 8421 4d3e
00000140: b72c 28bd 8844 043f de13 443f cadc 48bd
00000150: 8c5e 26be e33d 2e3f b810 87bd 4515 d73e
00000160: 7d56 14be bcd2 33bf 36c7 92bd ce87 3fbf
00000170: 7a45 2fbf 217b e63e 32df 1a3f c694 79be
00000180: bce4 f6be dd03 1c3f 7da4 6e3e d00a 363f
00000190: dd84 0a3f e1ab debe 6c4d d6be ac66 083f
000001a0: 449d f9be f2a7 d2bd ef9a 19be 473f 7c3e
000001b0: f599 823e 1363 08be fe85 00bf 4771 2d3f
000001c0: 1ca2 253f e8e3 1e3f 83ea 9cbe e422 363e
000001d0: 6c3a 093f eb35 58be bf40 d4be 64f0 0e3f
000001e0: 08f8 31be 9b47 83bc cb55 e93c cf8b 4f3e
000001f0: c239 bb3e d0e4 30bf 199a 363e 7f9b 22bf

fc.2.weight f4 [4, 128]
0.047671635 -0.13291578 -0.02018935 -0.05654504 -0.103880696 0.04003905 -0.0580547 -0.035722826
-0.101824194 -0.069867335 -0.12691224 -0.09092989 -0.123645574 -0.047254033 0.10984556 -0.039918426
0.137547 -0.051738687 -0.04172789 0.015564345 -0.096190944 0.12915057 0.10022635 0.06264535
-0.04255952 -0.010452967 -0.0038266717 0.07909907 0.016894609 -0.0039822063 -0.050209723 0.040803593
-0.11259726 -0.051947217 -0.042992618 -0.079187386 -0.062727585 0.06776674 0.048529003 0.011614699
-0.07604689 -0.02952236 0.031917557 0.15276566 0.11115739 0.032040585 0.063804045 -0.00220398
-0.09458318 0.077237904 -0.100733444 0.07219385 -0.022434164 -0.009833784 0.028836612 0.10789357
-0.041702013 0.12785804 -0.10019553 -0.03598147 -0.0014875402 -0.005793678 0.018517755 -0.06141014
-0.025558777 -0.04085274 -0.08914885 -0.04254704 0.021665387 0.0019816216 -0.13321374 0.022129662
-0.054380618 -0.05525043 -0.0812063 0.07193621 -0.1276731 0.0047649173 -0.0051832977 0.012295975
-0.09530565 -0.11173609 0.14611547 -0.113907516 -0.017527062 0.039630078 -0.05090519 -0.092638545
-0.032607097 -0.04656736 0.053384572 -0.067291565 0.009178296 0.08702654 -0.07098759 -0.06424538
0.03207809 0.035580114 0.1030492 0.10746337 0.043149564 -0.038382567 0.0090748295 0.12941757
-0.038328737 -0.09998637 0.028484177 -0.039066322 -0.09269516 0.029073397 0.020355828 0.10148579
0.060957674 0.019097047 0.025020415 -0.03973993 0.0007537502 0.020100404 -0.05212027 0.023626445
-0.050392468 -0.029246295 0.055363335 0.040134683 0.07752624 0.07179848 -0.023798093 -0.055327732
-0.17155695 0.06643658 -0.063371636 0.11441984 0.150908 -0.08720363 -0.022144398 -0.09285771
0.08696435 0.09485431 0.07868679 -0.033117536 -0.040547006 0.018691324 -0.017595867 0.14227796
-0.035294034 -0.07262846 0.07199135 -0.04198614 0.09203108 -0.056741025 0.022954648 0.021285146
0.04850971 0.008096508 0.069621764 -0.043615833 0.07765397 0.03440112 0.116419256 0.042965714
0.115697 -0.08418787 -0.024680048 0.027148085 -0.07705052 -0.16083719 -0.15597564 0.049426503
0.048871692 0.059828363 -0.05364774 -0.07279952 -0.093448944 0.068265654 0.0030044033 0.017670974
-0.034963846 0.048401095 0.0690557 0.08087402 0.021462452 0.03867191 0.0060629025 -0.060942426
0.0094794165 -0.034806155 -0.026172359 -0.0050377175 -0.026377121 -0.10901238 -0.08680378 0.08176041
0.032398917 -0.06796185 0.008509257 -0.074097805 0.085044004 0.019490065 0.10394308 0.11195747
0.0069908346 -0.069881395 0.038634636 0.052042283 0.03691245 -0.041906063 -0.07493946 -0.1048618
0.14656718 0.042118914 -0.029902466 0.10461824 0.038421735 0.0152418325 -0.11123416 0.010114241
0.001066035 -0.115676336 -0.078525014 -0.0339285 -0.02318987 -0.11231309 -0.0030559252 -0.011639684
0.1042644 0.047266465 -0.15028606 -0.15977807 0.0031924022 -0.008342925 -0.043089747 0.004833711
0.08320118 0.101871625 0.16189429 0.014733243 -0.0038103722 -0.015985973 0.066508 -0.024163043
-0.079105794 -0.104504965 0.14848994 -0.20765817 -0.013717771 -0.11535775 -0.016842365 0.041000344
0.06592398 0.12718917 -0.12284666 -0.029539656 -0.0012859311 0.042080976 -0.058634594 0.15883298
00000000: 5543 433d 131b 08be 2364 a5bc c69b 67bd
00000010: 67bf d4bd fdff 233d c4ca 6dbd 1952 12bd
00000020: 3489 d0bd 9b16 8fbd 48f5 01be 7339 babd
00000030: e439 fdbd 728d 41bd b5f6 e03d 8181 23bd
00000040: 1fd9 0c3e f2eb 53bd ddea 2abd 9801 7f3c
00000050: c2ff c4bd 0c40 043e 7943 cd3d 354c 803d
00000060: e452 2ebd ec42 2bbc e6c8 7abb b1fe a13d
00000070: 9066 8a3c 2b7d 82bb b6a8 4dbd ab21 273d
00000080: 6499 e6bd 9bc6 54bd 0719 30bd ff2c a2bd
00000090: 5277 80bd 4ac9 8a3d 59c6 463d 944b 3e3c
000000a0: 79be 9bbd e0d8 f1bc fcbb 023d 9a6e 1c3e
000000b0: 7ca6 e33d fd3c 033d b2ab 823d a670 10bb
000000c0: d4b4 c1bd e82e 9e3d 564d cebd 5fda 933d
000000d0: dac7 b7bc e11d 21bc c23a ec3c 4ef7 dc3d
000000e0: bbcf 2abd 38ed 023e 5033 cdbd 4e61 13bd
000000f0: 91f9 c2ba e5d8 bdbb 8cb2 973c 3389 7bbd
00000100: a460 d1bc 3455 27bd ac93 b6bd ce45 2ebd
00000110: 9c7b b13c 18de 013b 2f69 08be 4449 b53c
00000120: 36be 5ebd 464e 62bd 7d4f a6bd 4b53 933d
00000130: bdbc 02be 0623 9c3b a7d8 a9bb 0f75 493c
00000140: 9c2f c3bd e4d5 e4bd 4b9f 153e 5848 e9bd
00000150: ea94 8fbc 2653 223d f681 50bd 47b9 bdbd
00000160: 058f 05bd 6bbd 3ebd c8a9 5a3d 29d0 89bd
00000170: 9060 163c f83a b23d f161 91bd 1593 83bd
00000180: 5164 033d 74bc 113d 750b d33d c115 dc3d
00000190: 99bd 303d 0a37 1dbd 98ae 143c 0a86 043e
000001a0: 98fe 1cbd a7c5 ccbd a657 e93c 0204 20bd
000001b0: f6d6 bdbd 552b ee3c 44c1 a63c c8d7 cf3d
000001c0: c1ae 793d 6971 9c3c 9df7 cc3c 56c6 22bd
000001d0: 5297 453a 9aa9 a43c 107c 55bd 3f8c c13c
000001e0: 5568 4ebd ed95 efbc aac4 623d 4464 243d
000001f0: 14c6 9e3d 150b 933d 38f4 c2bc 559f 62bd
00000200: a0ac 2fbe e70f 883d fdc8 81bd f354 ea3d
00000210: a087 1a3e d197 b2bd 2b68 b5bc 2f2c bebd
00000220: 5d1a b23d fa42 c23d 8a26 a13d 41a6 07bd
00000230: 9e14 26bd 8c1e 993c 3525 90bc 50b1 113e
00000240: 7a90 10bd 3bbe 94bd 3370 933d a9f9 2bbd
00000250: ca7a bc3d 4769 68bd 630b bc3c 305e ae3c
00000260: 1eb2 463d 37a7 043c db95 8e3d 84a6 32bd
00000270: 0b09 9f3d 30e8 0c3d 386d ee3d d1fc 2f3d
00000280: 8cf2 ec3d b16a acbd d02d cabc a965 de3c
00000290: aacc 9dbd 81b2 24be 14b8 1fbe 7273 4a3d
000002a0: af2d 483d 960e 753d bcbd 5bbd ea17 95bd
000002b0: 2962 bfbd ddce 8b3d 86e5 443b b8c2 903c
000002c0: 4036 0fbd 3a40 463d 136d 8d3d 47a1 a53d
000002d0: 06d2 af3c 7066 1e3d 50ab c63b c49e 79bd
000002e0: 8e4f 1b3c e690 0ebd 6a67 d6bc 7013 a5bb
000002f0: d514 d8bc e241 dfbd 2ec6 b1bd 0072 a73d
00000300: bab4 043d 952f 8bbd 696a 0b3c 97c0 97bd
00000310: 8d2b ae3d a1a9 9f3c 1ce0 d43d f549 e53d
00000320: 5f13 e53b fa1d 8fbd 5a3f 1e3d 4a2a 553d
00000330: 8231 173d b1a5 2bbd dc79 99bd c9c1 d6bd
00000340: b515 163e e284 2c3d 04f6 f4bc 1642 d63d
00000350: 1c60 1d3d e1b8 793c bcce e3bd 34b6 253c
00000360: 33ba 8b3a b7e7 ecbd b9d1 a0bd 9cf8 0abd
00000370: aff8 bdbc 6804 e6bd eb45 48bb 60b4 3ebc
00000380: 9388 d53d 7b9a 413d 97e4 19be dd9c 23be
00000390: 9f37 513b c4b0 08bc e07e 30bd 1b64 9e3b
000003a0: 6165 aa3d 12a2 d03d 9ec7 253e b363 713c
000003b0: 70b7 79bb 04f5 82bc 5935 883d 93f1 c5bc
000003c0: 3802 a2bd b306 d6bd bf0d 183e 58a4 54be
000003d0: 80c0 60bc af40 ecbd 00f9 89bc faef 273d
000003e0: 2703 873d e13d 023e 0897 fbbd 26fd f1bc
000003f0: b08c a8ba 1a5d 2c3d d42a 70bd 1da5 223e

fc.2.bias f4 [4]
0.0008619579 -0.006483697 -0.020407397 0.10067
00000000: 04f5 613a 3175 d4bb 6a2d a7bc 132c ce3d
